E2/exercise_2/exercise_2/runs/2_2_simple_nn/model_best.ckpt (torch, 49184 bytes, 20 tensors)

conv1.weight f4 [4, 1, 4, 4, 4]
00000000: 9170 773b 6cbb 313d a4d6 963d 688c 1fbc
00000010: 7629 ffbb 77e3 133c ecf1 a53d 50bf 743d
00000020: ad98 f7bd ed78 243e 42a5 f83d e139 b6bb
00000030: 4fb6 86bd b610 153e 2346 e23d 46d2 823d
00000040: 42b2 a8bc 26bd 61bc 6bf0 11be 18de 553d
00000050: 0ca6 1a3d 42d7 2c3e c833 f63d c68e e8bd
00000060: 3f3a 05bd 9cf7 1ebd d6bf 1ebb d4ca d9bd
00000070: bc86 6c3d fb6a f4bc b484 063e c0a2 9fbd
00000080: d97f 703d 9750 14bd 4d48 cebd d79f f7bd
00000090: 5837 f13d 26a2 a33c 9405 db3d 4e9b 233d
000000a0: 4b67 633d dca8 4a3e 5004 113d b435 bbbd
000000b0: dde5 1f3d 6376 203c c739 083e d45e 60bd
000000c0: fd60 e3bd e6e3 68bd 5a24 b7bb c07d 493d
000000d0: b086 d03c bd4a 023e f10f 65bd ce48 cabd
000000e0: 4004 e8bd 20fa 193e 199e e2bc dd44 093a
000000f0: f3d8 a03d e1bc 3a3d c94d a13d c4e4 81bd
00000100: 1768 95bd e484 de3d 4e0c 443d 268e a0bd
00000110: f244 a43d 37c0 483d ec27 d73d 0ca4 203d
00000120: 1d91 553c c4c0 cebc 17ec ec3d 2a2a 5c3d
00000130: 780d 46bc fb25 e93d 0d2e 083e 8bb4 a93d
00000140: ded1 4abd b48a 633d 5443 f8bc 8158 6abd
00000150: 38cf e43c 6118 053e d59d a93d 8af4 c9bd
00000160: 0524 843d c96c 143e 0556 ce3d b81d a83d
00000170: 290e 97bc b4ed cd3c c4e2 783d c126 a3bd
00000180: 6598 113b cefd 003e 1a9e 3d3d fddc 42bd
00000190: cd0a a1bd 7a89 0e3e 0971 4ebd c636 84bd
000001a0: e57c a5bc bb40 81bd b61f 913d ce78 01be
000001b0: 9aea 2b3d 90ea 143e 1f98 413d a7de 8fbd
000001c0: 9307 cc3c f818 6abd 21e4 debd 2840 29be
000001d0: ad8f 53bd d188 86bd 32d9 053d e581 0dbe
000001e0: 8684 eabd e775 8b3d e3e4 e4bd 926e 40bd
000001f0: 95ba 6f3d ad7a f2bd 8fd1 aebd b843 9bbd
00000200: ec86 493c 20af f6bc cdc7 adbc 5787 47bd
00000210: a5e0 fd3d bf11 bebd 542f 89bd b143 a53d
00000220: 22d7 d73d 0f57 3c3d de30 c5bd 51c8 013d
00000230: 8fdc a0bc 0963 193d 1702 a0bd 2c92 9a3d
00000240: d5a6 eb3c e892 79bc df62 1c3c 2ccd ad3c
00000250: 9f3c e6bd c49b 3cbe 0736 dcbc b94a 993d
00000260: 50c7 ce3c d5f2 65be 24af 7dbd 97d0 bebd
00000270: a343 fcbc f393 c63c 8970 1cbc b177 2b3d
00000280: a573 07bd d734 a9bc 1dee 01be c4dd de3d
00000290: 3d9a 0bbd 7b64 cdbc 460a 51be a2a1 94bd
000002a0: 2e04 4f3d a1c0 3ebe fc8b afba 6097 973d
000002b0: 58be 8abd c675 513d 0a28 e5bc 3f44 92bd
000002c0: 68c1 82bd 1fdf 9c3d 0f14 9d3d d090 3d3d
000002d0: a9a1 ddbc 4906 0cbe 07e2 683d d915 29bd
000002e0: 3ead b5bd 1ac9 cebc 8e26 e2bb bb53 d3bd
000002f0: a064 033b 104b 153e 4826 213e f218 3cbd
00000300: bb81 a8bc 132c 6bbd f318 a1bd 0ad8 bdbb
00000310: 64d7 f93c cd8b 003e 94c3 7bbd f956 643d
00000320: c95c 0b3e 7041 763d dc30 cb3d 77d5 0cbb
00000330: 4d47 823d 47eb 6e3d ca10 013d df37 923d
00000340: 5cda c4bd 9df3 e9bc 5c79 40bd bd43 b33c
00000350: ba4c c6bd 8b92 ebbd 7cf1 a63d 25bf 993b
00000360: d854 fa3d 0cef b0bd 6c73 87bd b022 aa3d
00000370: be61 603d 4455 b1bd ab09 d9bd 25d7 d0bc
00000380: 6ebf 433d ede0 21be 6834 103d bbbf 463d
00000390: 5a5e ae3d 0d88 9dbb c563 24be 0204 df3d
000003a0: 84c2 203d d54b eabd 83b2 d2bd b5fd 863d
000003b0: 7e0a bd3d 4a73 93bd d28c 1bbe 87b1 713d
000003c0: 8f10 c93d 9142 dabd cbd9 b1bc 161c b83d
000003d0: f85d 973d 2cc9 f53c 6f8b 7fbd 4bfc 293d
000003e0: 672b 27bd 5ef9 c83d 1294 88bd 505e a8bc
000003f0: c341 ec3d c488 debd b496 7cbd 1157 a8bc
0.0037756304 0.04339163 0.07365158 -0.009738065 -0.007786925 0.0090264 0.081027836 0.059752762
-0.120896675 0.16061755 0.121408954 -0.005561099 -0.06577741 0.14557156 0.11048534 0.06387763
-0.020592812 -0.013778007 -0.14251868 0.05221376 0.03775601 0.1687899 0.12021595 -0.11355357
-0.03252625 -0.038810357 -0.002422323 -0.106343895 0.05774568 -0.029836169 0.1313656 -0.07794714
0.058715675 -0.03620967 -0.10072384 -0.12091034 0.11778134 0.01997478 0.10694423 0.039943032
0.05551843 0.19790977 0.035404503 -0.091411024 0.039037574 0.009793851 0.1330329 -0.054777935
-0.111024834 -0.056857966 -0.0055890502 0.04919219 0.025454849 0.12723823 -0.055923406 -0.09877168
-0.113289356 0.15036821 -0.027663277 0.00052363967 0.0785388 0.045590285 0.078761645 -0.06342462
-0.07295244 0.108651906 0.047863297 -0.07839613 0.08020963 0.049011435 0.10505661 0.039218947
0.013035086 -0.025238402 0.11568468 0.05375115 -0.012088172 0.11384197 0.13298817 0.08286389
-0.04951655 0.0555522 -0.030305542 -0.05721331 0.02793084 0.12997581 0.08282057 -0.09861095
0.06452183 0.14494623 0.10075001 0.082087934 -0.01843937 0.02513776 0.060763136 -0.07966376
0.0022216078 0.12596819 0.046293356 -0.047574032 -0.07863388 0.1391963 -0.050400767 -0.0645576
-0.020201156 -0.063111745 0.070861265 -0.1264374 0.04197178 0.14542603 0.047264215 -0.070248894
0.024905955 -0.05715272 -0.10883356 -0.1652838 -0.05165069 -0.065690644 0.032677837 -0.13819082
-0.11451058 0.068095975 -0.11176469 -0.046980448 0.058527548 -0.11839805 -0.08536064 -0.07581276
0.012300234 -0.030112803 -0.021213436 -0.048713055 0.12396363 -0.092807285 -0.0669848 0.08069552
0.1053908 0.045981463 -0.09628461 0.031685177 -0.01963642 0.037447963 -0.078128986 0.07547411
0.028766075 -0.015232779 0.009545057 0.021215998 -0.11242031 -0.18418795 -0.026881231 0.07484955
0.025241524 -0.22455914 -0.061934605 -0.09317129 -0.03079397 0.02424047 -0.009548315 0.041862193
-0.03306927 -0.020655079 -0.1268849 0.10882142 -0.03408264 -0.025072327 -0.20414075 -0.072573915
0.050541095 -0.1862817 -0.0013393159 0.07401919 -0.067745864 0.051137708 -0.027973194 -0.07141923
-0.063845456 0.076597445 0.076698415 0.046280682 -0.027054625 -0.13674273 0.05685618 -0.0412806
-0.08870934 -0.025242377 -0.0069015687 -0.10318705 0.002004899 0.14579415 0.1573726 -0.045922227
-0.020569673 -0.05741508 -0.07866087 -0.005793576 0.030498214 0.1255333 -0.061465815 0.055747006
0.13609613 0.060121 0.099214286 -0.002148954 0.06361256 0.058329847 0.031510152 0.07139563
-0.09611961 -0.028558547 -0.046990737 0.021882886 -0.09682603 -0.1150256 0.08151528 0.0046919757
0.12223214 -0.086393446 -0.06613812 0.08307397 0.054780714 -0.08658841 -0.10597547 -0.025493214
0.047789983 -0.15808459 0.03520623 0.048522692 0.0851409 -0.0048074783 -0.16053684 0.10889436
0.039248005 -0.11440245 -0.10287955 0.065913595 0.09230517 -0.07199724 -0.15190437 0.059007194
0.098176114 -0.10657228 -0.021710297 0.08989732 0.0739097 0.030003153 -0.062388834 0.04150037
-0.040812876 0.09813188 -0.06668867 -0.020552784 0.115359806 -0.1086593 -0.06166716 -0.020549329

conv1.bias f4 [4]
00000000: 4571 7e3d 7777 20be b739 733d 7fed 933d
0.06211974 -0.15670572 0.059381213 0.07223033

bn1.weight f4 [4]
00000000: a566 4f3f 7f41 313f 0abc 573f 6557 ac3f
0.81016 0.69240564 0.842713 1.3464171

bn1.bias f4 [4]
00000000: 2f50 c4bd 48bb c4bd ccc6 bdbd d1b7 6e3e
-0.09585606 -0.096060336 -0.09266433 0.23312308

bn1.running_mean f4 [4]
00000000: d752 d23c 06d5 29be 845e b03d 0428 8e3d
0.025674267 -0.16585168 0.086117774 0.06941226

bn1.running_var f4 [4]
00000000: 9b56 fb3d f1ad 443d 07ff e53d 7f5c 433c
0.12272378 0.048017446 0.11230283 0.011923908

conv2.weight f4 [8, 4, 4, 4, 4]
00000000: eae5 93bc b40d 0e3d c37e 5c3d 1f36 4c3d
00000010: c755 503d 6a1a 27bd daa4 1b3d 1cd6 1cbc
00000020: 53c2 e33c 041d 973c cfc2 c5bc f305 203c
00000030: 686a 31bd 2070 b63b f21d 7abd 1cc8 6cbd
00000040: fc29 483d 56eb 0e3d a78d ee3c 66c6 19bc
00000050: 28d6 883d 5775 693b 363a ce3c 588c 593d
00000060: 81b7 c13a 7e8f 6f3d cf56 b6bc 73ff 1f3c
00000070: cccf 223d 5536 98b9 dfa0 93bc 5e26 57bb
00000080: 882f df3c 9358 3cbd 541d 9c3b 7113 b53c
00000090: 6654 05bd 6894 543d 4413 e4bc 6712 183d
000000a0: b89a 723d f1e8 243b 3ce4 3abd 1862 96bc
000000b0: 3203 1cbd 74ee 31bd 6a9e 22bd 02b3 2fbd
000000c0: 9d7c 5f3d fe72 fe3c 0718 c939 2b97 12bd
000000d0: 1e59 873d 7b1e 8ebd cd27 8a3d 53cc 6abc
000000e0: 60c3 45bc 511b 6bbc 8e4c 3bbd 4c41 323c
000000f0: c6e0 a4bc e677 d0bd d49b d2bc ee3e e53c
00000100: f642 7fbd 7b61 2abc 7a8b 4d3c e88f df3c
00000110: 7ee8 39bd 1d72 53bd 8e07 43bd ddbb f5bc
00000120: f04c 67bc 25da f43c e3da a8bc 4ea8 c5bb
00000130: bd88 53bd 61e6 593c f2fd d43b 6dc4 da3b
00000140: 6caa 0ebd 7283 03bc 5ac9 453b dace 8ebb
00000150: d7b8 8abc d8f9 45bd 2629 18bc e8d0 493d
00000160: 02aa 26bc f0d5 57bd 3066 8b3d f2be 5f3c
00000170: f1ae e7bc df24 04bd d371 85bd ab07 d23a
00000180: 62ad 903d 7630 50bd 3467 af3d c8db f3ba
00000190: ca28 89bc 06e6 e2bc f21d 6d3d 1977 1abb
000001a0: f002 4b3d 0e18 f9bb 155f ad3d 8ae6 23bd
000001b0: 07e1 abbc f34d 9e3b f4c0 16bc d2f1 e9bb
000001c0: 4986 41bd a6c4 73bd 4996 17bd c862 65bd
000001d0: 7995 10bd 7fa7 50bd 177e 3dbd 8647 90bd
000001e0: cf2c 803b ba15 c3bd 0802 83bc 515e bcbd
000001f0: 3445 64bd 80e8 8539 c877 a93c b0f7 dc3b
00000200: c35e 433d 093c d03c 2b9e 1fbb 1102 4cbd
00000210: ba45 98bc 708e eb3b 87d4 5dbd 58c7 94bd
00000220: 9143 983d fb12 ac3c 3a93 f93c 301e 54bd
00000230: ec80 d33c e18d 943d a88d 52bd c68d 8cbc
00000240: 7890 10bb 1415 a13c a1ac 8cbc 29a7 133d
00000250: 8c43 d23c 2e55 193d 6b8e 933c 74a4 78bd
00000260: a4aa 113d d1cd c4bc 8469 2d3d 7499 bb3c
00000270: edd8 893c 336f e23b bcf0 4b3c ea40 6dbd
00000280: 1af1 29bc 5179 54bb 7f1d 483c 58b0 e03c
00000290: 8ef2 823d 8184 77bd ae7f 03bd ec12 b93c
000002a0: 0100 37bd 0a16 fe3c d798 52bd df33 693c
000002b0: 2cfe 0e3d 24a8 343d 6e88 7dbd 62ec 8cbd
000002c0: fa61 173d b5f3 cd3c 2716 b33c a5e8 ed3a
000002d0: c6a7 3abd 37a0 c6bc ab34 20bd 972a b4bd
000002e0: a58c 40bd 9a6d 3d3d 5644 923c bb95 3bbd
000002f0: 6847 fa3c 8ecf d5bc 3e25 e43b ce10 4abd
00000300: 7897 283e 11e6 8dbd a1c3 1a3e 8880 36be
00000310: 17b8 203e f2da d1bd 9118 193d 4e54 f4bd
00000320: 2e54 1a3e 1093 b53c edc6 9f3d d669 febc
00000330: 9d07 623e 7047 8fbd 650b 293d c147 e0bd
00000340: a6a6 92bd 04a4 a7bd 6040 dc3c a1fa e23c
00000350: 7b4b f9bd 3ce9 c1bc ddcc 11bc 575f bc3c
00000360: 599c c7bc 9348 3bbd b8d4 4b3c 452c d23d
00000370: 3fcd 1cbc 0a7f aabc c135 363d 874f 58bc
00000380: 2c59 d0bc bc4f 60bd 236e 82bd dcd3 c03b
00000390: 31a4 d0bc 5f21 b6bd f06d bdbd 0254 95bc
000003a0: 4f6e 05bd fab6 99bd 9055 ab3d 9c76 fdbc
000003b0: 2403 1f3d 7ee4 afbc 8028 943d 7419 88bd
000003c0: 3c77 5e3d 3d5d c8bd e718 bbbd c2e7 dabc
000003d0: 018e 9bbc a79b 16be 9e19 22be 14d9 abbd
000003e0: e54b 833c 35bb babd d0e7 38bd 761d cebc
000003f0: e2a7 d53c 8c6c f1bd 19b6 e2bc a00f 61bd
-0.018053968 0.034681037 0.053831827 0.0498563 0.050863054 -0.040796675 0.03799901 -0.009572532
0.027802622 0.018446453 -0.024140744 0.009767043 -0.043314368 0.0055675656 -0.061063714 -0.057808027
0.048868164 0.034892403 0.02912028 -0.009385681 0.06681472 0.0035622919 0.025174242 0.053112358
0.001477942 0.058486454 -0.02225819 0.009765494 0.03974895 -0.0002903218 -0.018021045 -0.0032829265
0.027244344 -0.04598291 0.0047642384 0.022103997 -0.03255119 0.051899344 -0.027841218 0.037126925
0.059229583 0.0025163258 -0.045627818 -0.018357322 -0.038088985 -0.043440297 -0.039701857 -0.042895325
0.0545622 0.031060692 0.0003835561 -0.035788696 0.06608795 -0.069394074 0.06745873 -0.014330941
-0.012070507 -0.014349774 -0.045727305 0.010879826 -0.020126712 -0.10179119 -0.02570907 0.027984109
-0.06231972 -0.010399218 0.012545461 0.0272903 -0.045387737 -0.0516225 -0.047614627 -0.029996807
-0.014117464 0.029889176 -0.020612186 -0.0060320264 -0.051644076 0.0132995555 0.006499999 0.006676248
-0.034830496 -0.0080269445 0.003017983 -0.0043581547 -0.016933842 -0.048333973 -0.009287154 0.049271494
-0.010172369 -0.05269426 0.068066 0.013656365 -0.02828166 -0.032261726 -0.06515851 0.0016024014
0.0706432 -0.050827466 0.08564606 -0.0018604929 -0.016743083 -0.027697574 0.057889886 -0.0023569523
0.04956335 -0.0076017445 0.08465401 -0.04001478 -0.020981325 0.0048310696 -0.009201277 -0.007139423
-0.047247205 -0.05951371 -0.037008557 -0.05600241 -0.0352988 -0.050940987 -0.046262827 -0.07044892
0.0039115916 -0.095256284 -0.01599218 -0.09197677 -0.05573006 0.00025540963 0.020686999 0.006743394
0.047697794 0.025419252 -0.002435575 -0.04980666 -0.018587936 0.0071886107 -0.05415776 -0.07264584
0.07434762 0.021005144 0.03046571 -0.0517866 0.02581831 0.07253624 -0.051404625 -0.017157447
-0.0022058766 0.019663371 -0.01717216 0.03604809 0.025666974 0.03743475 0.018012246 -0.06070371
0.035563126 -0.024023922 0.042336956 0.02290032 0.016827071 0.0069102286 0.012447532 -0.057923235
-0.0103724245 -0.0032420943 0.012214064 0.027427837 0.0639392 -0.0604291 -0.032104187 0.02259203
-0.044677738 0.031016368 -0.05141529 0.014233558 0.034910366 0.044105664 -0.061897688 -0.06881024
0.036958672 0.025140623 0.021861149 0.0018150999 -0.045570157 -0.024246318 -0.039112728 -0.08797186
-0.04700913 0.046247102 0.01785485 -0.04579709 0.030551627 -0.026099946 0.0069624474 -0.049332432
0.1646403 -0.06928647 0.15113689 -0.17822468 0.15695225 -0.10246839 0.037376944 -0.11930142
0.15071175 0.022164851 0.07801614 -0.031056326 0.22073217 -0.069960475 0.041270632 -0.10951186
-0.07160692 -0.081855804 0.026886165 0.0277074 -0.121726 -0.023670785 -0.008898941 0.02299468
-0.024366545 -0.04572351 0.012440853 0.1026235 -0.009570419 -0.02081253 0.044484857 -0.013202555
-0.025433145 -0.05476354 -0.06368663 0.0058846306 -0.025468918 -0.08893084 -0.092494845 -0.018228535
-0.0325759 -0.07505603 0.08365929 -0.030940346 0.038821355 -0.021471258 0.07234287 -0.0664548
0.05431293 -0.09783409 -0.09135609 -0.026721839 -0.018988611 -0.14707814 -0.15830085 -0.08391014
0.0160274 -0.09117738 -0.04514295 -0.025160532 0.02608103 -0.11788282 -0.027674722 -0.05494654

conv2.bias f4 [8]
00000000: 55fc 193c 721d bfbc 01a0 e53b e090 6bbd
00000010: 056b 00bb c70c a7bd e622 db3c fb66 cebc
0.00939854 -0.02332947 0.0070075993 -0.05751121 -0.0019595039 -0.08156734 0.02675004 -0.02519559

bn2.weight f4 [8]
00000000: 8eb3 573f 759a 6c3f 7e98 5c3f eb94 7d3f
00000010: 324f 713f 631d 9c3f 1a58 813f 9824 4d3f
0.84258354 0.9242318 0.86170185 0.99055356 0.9426147 1.2196468 1.0105011 0.8013396

bn2.bias f4 [8]
00000000: b95d 52be 25c3 97bd 8e65 a6bd 6357 a8bd
00000010: 0baf 28be 7881 47bd 7b0d a9bc 8b8e 4dbe
-0.20543565 -0.07410268 -0.08124839 -0.08219793 -0.16473024 -0.048707455 -0.02063631 -0.20073907

bn2.running_mean f4 [8]
00000000: 6733 08bf 3fc5 bfbe dbcd a1be eefe 7b3c
00000010: 087d b9be 497f 38be e716 ecbd 70f8 5e3d
-0.53203434 -0.37455174 -0.31602368 0.015380604 -0.36228204 -0.18017305 -0.11527806 0.054436147

bn2.running_var f4 [8]
00000000: f04a 7e3f 1b9a a63e b575 293f cb03 9b3e
00000010: a98f 243f 53d3 f93d 7f04 a43e e9a0 fe3e
0.99333096 0.32539448 0.6619523 0.3027633 0.6428171 0.1219851 0.3203468 0.4973214

conv3.weight f4 [16, 8, 4, 4, 4]
00000000: 7687 e33c 1e16 ac3c 1c58 0cbd e07f 31bd
00000010: 20b1 903a 09e5 adbc 10be bfbb 4040 383a
00000020: 889e c9bc 6043 4a3b 807e 33bc ec58 943c
00000030: 7521 1e3d 79cb d4bc 331d 2a3d d8e7 41bc
00000040: 4ab2 d9bc f501 0b3d 884f 903b b090 ef3b
00000050: a8ab ba3b 4cfd b13d aa24 993c f589 3b3d
00000060: d0c0 303b d4ae a93b 13df 61bd 75eb 0b3c
00000070: 9c67 1c3c 6cbf d53c 3b4c 24bd cf5d 143d
00000080: 80ef 87ba 8cd9 42bc 90e7 c73b ca33 2cbd
00000090: a0bc 7b3c 564d db3b 66f2 3c3c 34a6 1f3c
000000a0: 213f ddbc 621f d03c d9f2 9b3c 278e 933b
000000b0: c904 e7bc 6826 1bbc 7ad3 653b 7450 40bd
000000c0: e326 c2bc af0e 11bd cb43 103d 8be3 03bd
000000d0: ca67 91bc 552f 84bc 42d1 763d 9de2 2abd
000000e0: 34b1 f1bc fb18 093d 37df d3ba 5d8f 3ebc
000000f0: 0775 a0bc ef13 423c 3d15 3c3d 76d7 bebd
00000100: 9a52 e9bc 2829 d7bb 255c 1dbd 75ed bdbc
00000110: 6091 2d3c dd53 023d b035 5e3b 74b5 713c
00000120: 970f 10bd 784d e2bc 76a2 fa3c c1a5 183d
00000130: 1473 1cbc 22a1 823c 63a5 323d d0b8 5d3b
00000140: 7a3a c43c 5079 36bb 4047 89bc 140a 30bd
00000150: 535f 003d e597 4b3c c740 9cbc 929d c1bc
00000160: ecb3 1f3c 4b99 243d f02d 0ebd 163a 0b3d
00000170: 7281 ccbc 9c30 413d 893b 10bb e669 0b3d
00000180: 3e68 d03c 4077 c63b 1690 bc3c a09e 613c
00000190: 407e a43b c0ae 183d 1c3a 48bb c2c9 82bc
000001a0: 00d1 a6bb 0fdf bebc 8a4b 80bd 2214 9bbb
000001b0: 302c 793b 6fdc 693d 89b5 48bc 3e07 b13d
000001c0: 88c8 b7bc 80a9 b5b9 9493 33bc 1064 fe3b
000001d0: e27c f63c 3473 2d3c 5e3f ddba f663 dabb
000001e0: 123c b93c 80cf 353d e9c7 993c 5fc6 a4bb
000001f0: f8ee 24bd c7c2 903d ed27 8f3d 82d3 22bd
00000200: 8726 0c3d 60c4 743b a184 2dbd 63ec 2fbd
00000210: dc59 71bc 4bca 033d 9c9c 48bc 726f fdbc
00000220: 327a 933c 0c2a c2bc 3e02 a73c c8fe 513c
00000230: a297 d6bc ee5f f3bc 195c 13bd 30a8 943c
00000240: aa4b 8cbc a223 963c 0582 043d 48ea 01bc
00000250: 0047 193a 1b1c ae3c f487 9a3d f153 503d
00000260: fdd2 1f3d 44dc 143c ff9f 413c 533b 153d
00000270: 9087 73bb b5db e93c 23b4 a8bc 90ce 483d
00000280: 7aef cf3c e527 263d 7b21 30bd cc24 00bd
00000290: a886 19bd dcd6 503c 7b20 8f3b fdcc 8ebc
000002a0: 1df1 283d d91b a63c e4bb dabc fca9 17bd
000002b0: 4062 e73b 0270 933d 196b a6bc 2cd5 0abd
000002c0: 7b1c 06bd 8000 7bba 7e5a b8bc 20a4 d9bb
000002d0: f4d2 29bc 76d2 113d a2c2 9bbd 5483 48bd
000002e0: 11dc 0e3d f34a a8bc 1ec2 e23c 5ecd ee3c
000002f0: 650f b2bc 7703 d3bc eda3 72bd efa6 9b3c
00000300: 011e fdbc a199 9ebc d03b d53b 2563 2a3d
00000310: 4f0b 073d e205 d53c 0060 783b 0af8 8f3c
00000320: 70f0 a1bb a029 903a e0c7 29bd 0410 3bbc
00000330: bfa8 1e3d 76c7 05bd 1671 f23c 33c1 0c3d
00000340: d28d 2bbd 0220 ef3c 9885 a7bc e9ce 07bd
00000350: 2874 dabc de6b 7fbc b8ba 3d3d ce38 333b
00000360: 2090 8eba 6128 a83c aea0 6a3b 19ec 953d
00000370: a0be 683c 2e44 bbbc 873d 243c 19a9 133d
00000380: 3887 7bbc c870 a03b a43b 16bd 1c44 18bd
00000390: 899c 2a3d 27cb 12bd 8623 a2bc 3f3b 173c
000003a0: 61ed 0a3d 26f5 a1bc ad1d af3c 341c 98bc
000003b0: 2279 e93c 2757 00bb a1bb ef3c 8a9f a53c
000003c0: 24a0 02bc 6608 bfbc d4bc eabc a6a5 07bd
000003d0: aba9 343d 236e 09bd 2461 03bd 074a af3d
000003e0: 14cc e3bc a607 1c3d 192f bcbd fc24 3d3d
000003f0: 36ed 83bc 295d 083d 19bd 0dbe 36cb 133d
0.027774554 0.02100664 -0.034263715 -0.04333484 0.0011039115 -0.021227377 -0.0058515146 0.0007028617
-0.024611726 0.0030862913 -0.010955453 0.018108808 0.038606126 -0.02597593 0.041531753 -0.011835061
-0.026574273 0.033937413 0.004404012 0.0073109493 0.0056967326 0.08690891 0.01869424 0.045785863
0.0026970394 0.005178312 -0.05514438 0.008540024 0.009546187 0.026092254 -0.04011176 0.036222275
-0.0010371059 -0.0118926875 0.0061006024 -0.042041577 0.015364796 0.006692569 0.011532402 0.009744216
-0.027007641 0.02540559 0.019036697 0.00450303 -0.028200524 -0.009469606 0.0035068677 -0.046951726
-0.023700183 -0.035414394 0.035220902 -0.032199424 -0.017749686 -0.01613585 0.060258158 -0.04172002
-0.029503442 0.03347109 -0.0016164546 -0.01163086 -0.019587053 0.011845573 0.045918692 -0.0931844
-0.02848177 -0.0065661855 -0.038417954 -0.023184517 0.010593742 0.03181826 0.0033906512 0.014752734
-0.035171118 -0.02762483 0.030595046 0.03726745 -0.009548921 0.015945975 0.043614756 0.003383208
0.023953665 -0.0027843304 -0.016757607 -0.04297836 0.03134091 0.012426351 -0.019073857 -0.023634706
0.009747487 0.040185254 -0.03471178 0.033990942 -0.024964068 0.0471655 -0.0022008142 0.03403654
0.025440332 0.006056696 0.023017924 0.013770729 0.005019933 0.03727603 -0.0030552214 -0.015965346
-0.0050908327 -0.023299722 -0.06264408 -0.0047326246 0.0038020723 0.057094987 -0.012250313 0.086439595
-0.022434488 -0.00034649298 -0.010960478 0.007763393 0.030088846 0.010586549 -0.0016879847 -0.0066647483
0.022611652 0.04438734 0.018772082 -0.0050285305 -0.04026696 0.07068401 0.06990037 -0.03975249
0.03421643 0.0037348494 -0.042362813 -0.042950045 -0.014730897 0.032175343 -0.01224437 -0.03093693
0.018002603 -0.02370169 0.020386811 0.012817092 -0.026195351 -0.029708829 -0.035976503 0.018146604
-0.017125923 0.018327538 0.03235056 -0.007929392 0.00058470666 0.021253636 0.07545462 0.050861303
0.039019573 0.009085719 0.011817931 0.03643353 -0.003715966 0.028547147 -0.020593708 0.04902512
0.025382746 0.04056539 -0.04300068 -0.031285092 -0.037481934 0.012746539 0.0043678856 -0.01743173
0.04124557 0.02027695 -0.026700921 -0.037027344 0.007061273 0.07199098 -0.02031474 -0.033894703
-0.032742005 -0.00095749646 -0.022504088 -0.0066418797 -0.010365237 0.0356011 -0.07605483 -0.04895337
0.03487784 -0.020543551 0.027680453 0.029150661 -0.021735856 -0.025758488 -0.059238363 0.019000499
-0.030898096 -0.019360365 0.0065073743 0.041598458 0.03296977 0.026003782 0.0037899017 0.017574329
-0.0049419925 0.0010998733 -0.04145038 -0.011417393 0.038735148 -0.032660924 0.02959494 0.034363937
-0.041883297 0.029190067 -0.020449445 -0.03315631 -0.026666716 -0.015589682 0.046320647 0.002734709
-0.0010876693 0.020527067 0.003580134 0.07320423 0.014205605 -0.022859659 0.010024435 0.036049936
-0.015352063 0.004896257 -0.03667797 -0.03717433 0.04165319 -0.035838272 -0.01979233 0.009230434
0.03391779 -0.019770216 0.021376455 -0.018568136 0.028500143 -0.0019583197 0.029264273 0.020217676
-0.007972751 -0.023319434 -0.028654493 -0.03311696 0.04410712 -0.0335523 -0.032075062 0.085590415
-0.027807273 0.03809323 -0.09188671 0.04617785 -0.016104322 0.03329197 -0.13841666 0.03608247

conv3.bias f4 [16]
00000000: 9e71 5a3c 1dd8 5ebd d8b3 b5bc 1e23 583c
00000010: 7f5d 26bd 9bb4 44bc 340c 013d e5e1 083d
00000020: 8166 f43c c768 c13c bb19 433b 44e2 16bd
00000030: 1f03 0fbd b691 6a3c 08bd 5ebc 4f40 e2bc
0.0133327525 -0.05440532 -0.022180483 0.013191966 -0.04061651 -0.01200595 0.03150578 0.033418555
0.029834034 0.023609532 0.0029769975 -0.036836877 -0.034915086 0.014316967 -0.013594873 -0.027618555

bn3.weight f4 [16]
00000000: 90e6 a33f ad29 a13f 69d7 9e3f 524b a93f
00000010: e114 a03f 9b47 a13f 7a66 a23f 06f4 c23f
00000020: e853 a83f c5ef b83f 2db0 a83f 9f56 a33f
00000030: c8a1 a73f 209b ac3f 786c 9e3f 90e2 a83f
1.2804737 1.2590843 1.2409488 1.3226111 1.2506372 1.2599977 1.2687523 1.523072
1.3150606 1.4448172 1.3178765 1.276081 1.3096247 1.348484 1.2376852 1.3194141

bn3.bias f4 [16]
00000000: 4fc0 793e 0a1a 643e eeae 323e e11c 5a3e
00000010: bac4 433e 7ecf 513e 19fe 563e e133 633e
00000020: 959a 4e3e ce67 a23e 31c2 6d3e df22 4b3e
00000030: f57d 333e e622 713e aa37 313e fcd1 733e
0.24389766 0.22275558 0.17449543 0.21300079 0.19118014 0.20489308 0.20995368 0.22187759
0.20176156 0.31719822 0.2321861 0.19837521 0.17528518 0.23548469 0.1730639 0.23810571

bn3.running_mean f4 [16]
00000000: b8d2 de3d 3ea0 5bbe a622 9fbc cb8f 103e
00000010: f6d0 a9be bfdb 07be 6b24 4d3d 1856 4a3e
00000020: 8444 35be 52e7 a03e c14f 95be 7979 48be
00000030: e2ea debd 4017 6cbe 6e17 b03d b0c2 623c
0.10880035 -0.21447846 -0.019425701 0.14117353 -0.33167237 -0.1326742 0.05008356 0.19759405
-0.17701918 0.31426483 -0.2916241 -0.19577588 -0.10884644 -0.23055744 0.08598219 0.013840362

bn3.running_var f4 [16]
00000000: 5a24 ea3d fed4 413d edc6 313d 1b3b 133e
00000010: 1ecb 3d3d 442f 4c3d c9bd 593d 776c 8a3e
00000020: 58a0 ef3c 48d1 0f3e 1149 8e3d 1fd4 2a3d
00000030: 9521 bb3e 4129 893e 3e02 103d b729 7b3d
0.11432715 0.047322266 0.0434026 0.14378016 0.046336286 0.049849764 0.05315951 0.27035877
0.029251263 0.14044678 0.0694753 0.0417062 0.3654906 0.26789287 0.03515839 0.06131908

fc.weight f4 [2, 16]
00000000: 6665 8fbe 877a a13e 0662 c23e a0b8 01bf
00000010: 4f36 be3e 7b7e 4a3e 56ad 82be 2061 ddbe
00000020: 46c7 e2be 48ef 08bf 2eda 7f3e 7c6c d03e
00000030: a582 cdbe 326c 05bf d0e5 e1be 2635 c43e
00000040: 8d0f c23e e42e 97be fbe0 a5be e3d2 8f3e
00000050: b96d 79be 72da cdbe f61f e43e a27e db3e
00000060: c201 a13e 6b4c be3d 5001 87be 13f8 bdbd
00000070: 10fc 8e3e 21c0 f43e 69f8 dd3e 18bf 84bd
-0.28007048 0.31538793 0.3796541 -0.5067234 0.3715081 0.19774811 -0.2552287 -0.43238163
-0.4429266 -0.53490114 0.24985573 0.40707767 -0.40138736 -0.5211822 -0.44120646 0.383218
0.3790249 -0.29527962 -0.3239821 0.2809058 -0.24358262 -0.40205723 0.44555634 0.4287005
0.31446654 0.09291919 -0.2636819 -0.09275832 0.27926683 0.47802833 0.43353584 -0.06481761

fc.bias f4 [2]
00000000: cea3 3fbe 9fa9 ddbd
-0.1871483 -0.10823368
