E2/exercise_2/exercise_2/runs/2_2_simple_nn/model_best.ckpt (torch, 49184 bytes, 20 tensors)

conv1.weight f4 [4, 1, 4, 4, 4]
0.17966296 -0.011612659 -0.046390187 0.0020670644 0.036808364 0.1244191 0.07528784 0.058189914
0.08904799 -0.08687657 0.07249574 0.042016704 0.07536992 0.030443914 -0.05005803 0.033229895
0.09969935 0.06033295 0.06995093 0.13946909 -0.035982404 -0.07665153 -0.07967172 0.02818632
-0.12901807 -0.0012120506 0.06577616 0.0020392616 -0.024846276 0.0015589652 0.07194082 0.16029102
-0.1040559 -0.03512944 0.01933577 0.036505517 0.031644147 -0.04682262 -0.08327655 0.19542672
-0.06568426 0.05042677 -0.094179206 0.16713966 0.09361164 -0.071838826 0.060359705 0.19184957
0.007659646 0.032695927 0.081894286 0.049542956 -0.107041456 0.12753981 -0.05827736 0.004495763
-0.11650988 -0.033797126 -0.0676834 0.12184715 -0.024869287 -0.023180287 0.09818618 -0.011314715
0.089998946 -0.0068990905 0.047819547 0.13958879 0.09319315 -0.0074152276 -0.04319067 0.06149575
0.10124322 0.13510326 0.07328112 -0.043036282 0.105229504 -0.036598817 -0.055193335 0.14236057
-0.084228724 -0.16530637 -0.15361243 0.07492036 -0.08886476 -0.0035223868 -0.089026034 -0.027511822
0.035845824 -0.031991303 -0.16883935 0.024132889 0.12025276 0.00583689 -0.006838647 -0.028107189
0.027000764 -0.0043627834 0.011046767 0.031298302 0.07996002 -0.1765522 -0.14572883 0.05308254
0.04427051 -0.18444806 -0.034698114 0.033573955 -0.04065014 -0.17630605 -0.15341128 0.014755297
-0.022069316 0.12741637 -0.046016432 0.20079538 -0.050482277 -0.01948287 0.11279107 0.0076564606
0.0003868216 -0.008092365 -0.035567537 -0.0067662513 0.0487705 -0.10404989 0.01584392 0.005727486
-0.12929378 0.030329414 -0.08746608 -0.09727958 -0.012551974 -0.058094308 -0.11052435 0.062228814
-0.07852863 -0.028723327 0.01542902 0.025371268 -0.022672983 -0.083975725 -0.09724953 0.03276184
0.118862756 0.061684188 0.1765896 -0.06701195 0.11939994 0.12829062 0.19762641 0.023102459
-0.089759305 0.09997568 0.10372526 0.05773149 0.092946336 -0.0408258 0.1523177 -0.0025977474
-0.074611865 0.15663607 0.07577459 0.05441261 -0.08815853 0.19030136 0.072744235 0.1404363
-0.082844205 0.009346402 0.0014035319 -0.08964918 0.037870534 0.04001729 -0.03921636 0.066793874
0.0069924565 -0.011932417 0.074685305 -0.18299948 0.063549526 0.05606845 -0.03112671 -0.087242156
-0.13425727 0.00047343722 0.003846443 -0.14619465 0.060146436 -0.06854876 -0.013117145 0.055488814
0.0074161985 0.021324774 -0.09348525 -0.065321416 -0.06241873 -0.07369797 0.08717055 -0.11583234
-0.00043450596 0.011902847 0.11690004 0.018930383 0.033933345 0.026717672 -0.13331704 -0.14423458
0.024809008 0.0487016 -0.010853858 -0.055633727 0.059117902 0.14156489 0.04380305 -0.099502556
-0.032712575 0.13040717 -0.03908274 -0.0993648 -0.060324736 0.027524035 0.027794981 -0.087220505
-0.09066279 0.10104253 0.061778348 -0.11702902 0.06773862 0.08784803 0.10592024 -0.0020189178
0.08501072 0.19626312 0.06554295 0.094303586 -0.02980019 -0.11856259 0.013994409 -0.012324017
-0.06826004 -0.10981845 0.025402326 -0.0736118 0.07887573 0.11653963 0.03401239 0.03540214
-0.09296433 0.103322156 0.115091346 0.049172103 -0.014540862 -0.029387778 -0.04111197 -0.17136131
00000000: 91f9 373e 0643 3ebc a303 3ebd 9677 073b
00000010: 5ec4 163d 71cf fe3d 8330 9a3d 8c58 6e3d
00000020: cb5e b63d 58ec b1bd a678 943d b519 2c3d
00000030: 8b5b 9a3d 8465 f93c a609 4dbd 121c 083d
00000040: 2c2f cc3d af1f 773d 6f42 8f3d fcd0 0e3e
00000050: 4962 13bd 7afb 9cbd ed2a a3bd ffe6 e63c
00000060: 501d 04be abdd 9eba a7b5 863d 22a5 053b
00000070: 6b8a cbbc 3156 cc3a b555 933d 5423 243e
00000080: 421b d5bd e3e3 0fbd 0c66 9e3c cf86 153d
00000090: 4b9d 013d 13c9 3fbd e58c aabd f11d 483e
000000a0: 7885 86bd 4d8c 4e3d 07e1 c0bd a926 2b3e
000000b0: 76b7 bf3d 3c20 93bd bd3b 773d 3774 443e
000000c0: c5fd fa3b 2aec 053d 31b8 a73d 8eed 4a3d
000000d0: 8d38 dbbd cc99 023e 3eb4 6ebd 3251 933b
000000e0: bb9c eebd db6e 0abd 989d 8abd 008b f93d
000000f0: adba cbbc 96e4 bdbc d615 c93d 5b61 39bc
00000100: 5e51 b83d c411 e2bb 6ede 433d 5df0 0e3e
00000110: 0ddc be3d 70fb f2bb b3e8 30bd f8e2 7b3d
00000120: 9b58 cf3d 8258 0a3e 6914 963d d046 30bd
00000130: 9182 d73d a4e8 15bd 6812 62bd f8c6 113e
00000140: 1c80 acbd 1346 29be 944c 1dbe d96f 993d
00000150: bafe b5bd d8d7 66bb 4853 b6bd 7960 e1bc
00000160: 12d3 123d 5009 03bd 39e4 2cbe 56b2 c53c
00000170: 1447 f63d 6243 bf3b bb16 e0bb 0c41 e6bc
00000180: b530 dd3c aef5 8ebb 80fd 343c a632 003d
00000190: 14c2 a33d 1aca 34be f039 15be 146d 593d
000001a0: ff54 353d f4df 3cbe 9c1f 0ebd d884 093d
000001b0: c380 26bd 9389 34be d917 1dbe 34c0 713c
000001c0: b6ca b4bc 7079 023e ba7b 3cbd 4e9d 4d3e
000001d0: 81c6 4ebd 8a9a 9fbc 01ff e63d 0ce3 fa3b
000001e0: 51ce ca39 d795 04bc 44af 11bd 6eb7 ddbb
000001f0: 93c3 473d 1c18 d5bd 1ccb 813c a3ad bb3b
00000200: 9765 04be 6475 f83c 6b21 b3bd 843a c7bd
00000210: cba6 4dbc 4cf4 6dbd 975a e2bd a4e3 7e3d
00000220: 9ed3 a0bd 2f4d ebbc 00ca 7c3c 68d7 cf3c
00000230: b1bc b9bc 77fb abbd c32a c7bd 4731 063d
00000240: 516e f33d 8fa8 7c3d e7d3 343e 903d 89bd
00000250: f587 f43d 9e5e 033e 945e 4a3e 5e41 bd3c
00000260: bad3 b7bd 0dc0 cc3d e96d d43d db77 6c3d
00000270: a65a be3d f438 27bd 2cf9 1b3e f83e 2abb
00000280: 1bce 98bd 3565 203e b52f 9b3d c2df 5e3d
00000290: 768c b4bd 5cde 423e eefa 943d 89ce 0f3e
000002a0: 39aa a9bd a721 193c b7f6 b73a fd99 b7bd
000002b0: 221e 1b3d 2be9 233d 55a1 20bd 3acb 883d
000002c0: fa20 e53b 2f80 43bc 9cf4 983d 3764 3bbe
000002d0: 4126 823d 08a8 653d 71fd febc 04ac b2bd
000002e0: bd7a 09be ab37 f839 9b14 7c3b 0db4 15be
000002f0: 1c5c 763d 4b63 8cbd 4be9 56bc 3d48 633d
00000300: 9503 f33b 4bb1 ae3c 3275 bfbd 3cc7 85bd
00000310: c8aa 7fbd f6ee 96bd 7986 b23d 8239 edbd
00000320: 67ce e3b9 2904 433c 4a69 ef3d e413 9b3c
00000330: b1fd 0a3d 05df da3c 4384 08be 3bb2 13be
00000340: 433c cb3c 547b 473d 61d4 31bc 31e0 63bd
00000350: 9d25 723d 63f6 103e d46a 333d ffc7 cbbd
00000360: 9ffd 05bd 7589 053e 3915 20bd c67f cbbd
00000370: 1217 77bd 167a e13c 4db2 e33c aaa0 b2bd
00000380: 6aad b9bd 63ef ce3d 4b0b 7d3d e9ac efbd
00000390: 8cba 8a3d abe9 b33d b6ec d83d d24f 04bb
000003a0: 1a1a ae3d 33f9 483e 623b 863d 3d22 c13d
000003b0: 871f f4bc f1d0 f2bd ce48 653c acea 49bc
000003c0: ebcb 8bbd 7fe8 e0bd 8a18 d03c c9c1 96bd
000003d0: 9989 a13d 54ac ee3d 9350 0b3d d601 113d
000003e0: 1564 bebd 919a d33d 03b5 eb3d b068 493d
000003f0: cc3c 6ebc a3be f0bc 0665 28bd 5779 2fbe

conv1.bias f4 [4]
-0.055539254 -0.02557676 0.035792176 -0.065945715
00000000: 217d 63bd 5a86 d1bc d19a 123d 8c0e 87bd

bn1.weight f4 [4]
0.41644436 1.6206133 0.5826193 0.7023602
00000000: 3238 d53e 4270 cf3f 8a26 153f e1cd 333f

bn1.bias f4 [4]
-0.27177528 0.28418872 -0.17493457 -0.21742639
00000000: 2126 8bbe 2f81 913e 0c22 33be 06a5 5ebe

bn1.running_mean f4 [4]
-0.09790504 -0.035448495 0.027932784 -0.048406288
00000000: 7082 c8bd 7132 11bd 4bd3 e43c ac45 46bd

bn1.running_var f4 [4]
0.15870132 0.024183055 0.05606022 0.02143185
00000000: 9982 223e 8b1b c63c 679f 653d d991 af3c

conv2.weight f4 [8, 4, 4, 4, 4]
0.009998908 -0.01022706 0.02514274 0.046561033 0.03647705 0.0701599 -0.061373353 0.013944714
-0.005174854 -0.029996293 -0.054266736 -0.030882772 0.06863336 -0.018791955 0.032389488 -0.050116617
-0.020463457 0.015112345 -0.05579008 0.0098760035 0.064559795 0.051718157 0.047100145 0.012474729
-0.0028920365 -0.028215162 -0.051601198 -0.07080538 0.01526108 0.014690783 -0.008645123 -0.03755522
0.019800913 0.039170172 -0.02540998 -0.054385368 -0.005433862 0.011563 0.05543149 -0.028415723
0.0225536 -0.05117175 -0.08165256 -0.025439251 -0.055657912 -0.039861463 -0.07593806 -0.011594065
-0.035347946 -0.009317076 0.005530836 0.008830998 -0.041251205 0.023643637 -0.00562047 0.005007573
-0.011806263 -0.08451492 -0.08220365 0.01448648 0.02421521 -0.049302373 -0.10949517 -0.010107102
0.15858918 0.0075307563 0.03401812 -0.058176663 0.20593362 0.008961568 -0.008667484 -0.064648435
0.09565125 -0.035132468 0.035152063 -0.0094897635 0.16544233 -0.0860978 -0.035642333 -0.014555018
0.043638423 0.01260155 0.018926263 -0.032040812 0.046937346 -0.0038872266 0.007103824 -0.056836154
-0.09005833 -0.102288455 3.0212927e-05 -0.0925027 -0.11353981 -0.01323382 -0.034466617 -0.02755354
0.097145826 0.08982257 0.060715348 0.034192935 0.055274017 0.032126132 -0.023607338 -0.08944917
-0.040112346 -0.058712367 -0.02662229 -0.0056214686 -0.100895904 -0.09589594 -0.073891334 -0.077899925
0.01251401 0.014209846 -0.04399836 -0.042937778 -0.08795077 0.0023466034 -0.04968054 -0.08623816
-0.077652 -0.039286863 -0.054596085 -0.062300988 -0.034504153 -0.048635926 0.034101903 -0.10757292
-0.045452375 0.0039530955 0.014709856 -0.04146526 -0.037041012 -0.04932446 0.028960722 -0.05352894
-0.07936904 -0.08533648 0.014426856 -0.06663102 -0.06649225 -0.10122853 -0.061001524 -0.08360512
0.027487209 -0.034244582 0.011635221 -0.026100151 -0.008169697 -0.08722459 -0.043181524 -0.027426245
0.025163278 -0.00444482 0.050512616 -0.09885001 -0.054913025 -0.11631766 -0.09022109 -0.053738315
0.028540572 -0.005002816 0.05594653 0.021468308 0.087836914 -0.043890614 0.03282259 -0.04130313
0.021874782 0.022924889 -0.01890494 -0.06373757 -0.008109528 0.008548586 -0.038499758 -0.103433125
-0.0552837 -0.027596949 -0.0053852224 -0.07577053 0.08756956 -0.026845235 0.00037211328 -0.04221324
-0.026591476 0.017409313 -0.06577596 -0.07557261 0.073834695 0.0063871006 -0.08988726 -0.06487105
-0.06340715 -0.09529785 0.0072792736 0.03024465 -0.03680631 -0.11885389 -0.0375392 -0.02102088
-0.002559285 0.02494597 0.09008513 0.089112066 -0.053982582 -0.03159908 -0.036293913 0.01136779
0.00092761504 0.008745525 0.060949787 -0.033535752 0.021242738 -0.09480731 -0.040522344 -0.060621254
0.097302355 0.04043805 0.058138117 0.030141471 -0.05373683 -0.11464232 0.021199072 -0.09386547
-0.008797698 -0.07416707 0.005174769 0.0077969837 0.0016218508 0.0026155137 0.022830544 0.00063885166
0.0708804 0.017559154 0.094153 -0.0037595844 -0.02787509 -0.008693583 0.024988778 -0.01600518
0.05540383 0.031592567 -0.004491397 0.02583152 0.092389785 -0.016272549 0.07458649 -0.010756849
0.087785736 0.08377329 0.07132086 0.04620526 0.02987017 -0.104321904 -0.00269897 0.014594892
00000000: 76d2 233c 668f 27bc 26f8 cd3c c8b6 3e3d
00000010: f668 153d feaf 8f3d a062 7bbd 5f78 643c
00000020: d291 a9bb c9ba f5bc cc46 5ebd defd fcbc
00000030: a68f 8c3d 96f1 99bc d7aa 043d 1547 4dbd
00000040: fba2 a7bc c599 773c 2484 64bd f6ce 213c
00000050: ed37 843d 6bd6 533d 15ec 403d ce62 4c3c
00000060: 5288 3dbb 7c23 e7bc c75b 53bd 6902 91bd
00000070: 9c09 7a3c 9cb1 703c 46a4 0dbc 81d3 19bd
00000080: 8635 a23c e770 203d 9728 d0bc 31c3 5ebd
00000090: 8a0e b2bb bd72 3d3c 210c 633d 17c8 e8bc
000000a0: 54c2 b83c 7899 51bd 7539 a7bd fa65 d0bc
000000b0: 8df9 63bd c645 23bd 6a85 9bbd 09f5 3dbc
000000c0: 02c9 10bd a6a6 18bc 043c b53b e4af 103c
000000d0: 06f7 28bd 4db0 c13c eb2b b8bb 9116 a43b
000000e0: 0e6f 41bc 2916 adbd 635a a8bd b358 6d3c
000000f0: fa5e c63c 49f1 49bd 013f e0bd 4298 25bc
00000100: 3465 223e 90c4 f63b 9656 0b3d a74a 6ebd
00000110: 43e0 523e 8ad3 123c 1002 0ebc 6666 84bd
00000120: cde4 c33d 10e7 0fbd 9cfb 0f3d f47a 1bbc
00000130: b769 293e 0b54 b0bd b2fd 11bd 2c78 6ebc
00000140: 34be 323d bb76 4e3c 400b 9b3c 3a3d 03bd
00000150: 6041 403d d7c0 7ebb 32c7 e83b 07cd 68bd
00000160: 8070 b8bd 9c7c d1bd c471 fd37 0e72 bdbd
00000170: 8f87 e8bd aad2 58bc de2c 0dbd f6b7 e1bc
00000180: 64f4 c63d e5f4 b73d a8b0 783d e40d 0c3d
00000190: 0267 623d b196 033d 2d64 c1bc 2031 b7bd
000001a0: d84c 24bd 617c 70bd fd16 dabc 4c34 b8bb
000001b0: 83a2 cebd 1765 c4bd 5754 97bd ff89 9fbd
000001c0: 9007 4d3c 6ad0 683c a037 34bd 86df 2fbd
000001d0: 891f b4bd 79c9 193b d27d 4bbd a29d b0bd
000001e0: 0308 9fbd 43eb 20bd 25a0 5fbd 522f 7fbd
000001f0: 3a54 0dbd 7736 47bd 70ae 0b3d 314f dcbd
00000200: 452c 3abd f888 813b 9c01 713c 7ad7 29bd
00000210: 51b8 17bd 7208 4abd 093f ed3c 2941 5bbd
00000220: 3c8c a2bd e4c4 aebd 9f5e 6c3c d875 88bd
00000230: 172d 88bd e750 cfbd bcdc 79bd 2939 abbd
00000240: db2c e13c 0c44 0cbd a7a1 3e3c fccf d5bc
00000250: 31da 05bc cea2 b2bd 1cdf 30bd 01ad e0bc
00000260: 3823 ce3c daa5 91bb 51e6 4e3d e071 cabd
00000270: 7bec 60bd f437 eebd d6c5 b8bd b51c 5cbd
00000280: ebcd e93c aaee a3bb 3028 653d 4ede af3c
00000290: d7e3 b33d a5c6 33bd fb70 063d 792d 29bd
000002a0: be32 b33c facc bb3c 88de 9abc d888 82bd
000002b0: d3dd 04bc 5e0f 0c3c ecb1 1dbd bfd4 d3bd
000002c0: 2971 62bd ff12 e2bc 8576 b0bb 942d 9bbd
000002d0: ab57 b33d 8aea dbbc 3318 c339 cae7 2cbd
000002e0: 5ed6 d9bc fa9d 8e3c 8cb5 86bd d0c5 9abd
000002f0: a536 973d e24a d13b d016 b8bd 1ddb 84bd
00000300: 9cdb 81bd 852b c3bd f986 ee3b a1c3 f73c
00000310: 37c2 16bd ab69 f3bd b4c2 19bd fb33 acbc
00000320: adb9 27bb 7e5b cc3c 8d7e b83d 6380 b63d
00000330: d71c 5dbd 096e 01bd eda8 14bd f83f 3a3c
00000340: 312b 733a 6449 0f3c 7ca6 793d c95c 09bd
00000350: 4005 ae3c 562a c2bd c2fa 25bd fe4d 78bd
00000360: 7546 c73d 5ea2 253d 3c22 6e3d 3feb f63c
00000370: 261b 5cbd 98c9 eabd ada9 ad3c 8a3c c0bd
00000380: 3824 10bc e8e4 97bd 1c91 a93b d77d ff3b
00000390: 4894 d43a 0a69 2b3b 1f07 bb3c 9c78 273a
000003a0: be29 913d 37d8 8f3c 4ad3 c03d 5c63 76bb
000003b0: 4d5a e4bc 886f 0ebc 44b5 cc3c 4c1d 83bc
000003c0: 20ef 623d 3567 013d 922c 93bb a09c d33c
000003d0: db36 bd3d 024e 85bc cdc0 983d 7f3d 30bc
000003e0: 02c9 b33d 5591 ab3d ac10 923d ba41 3d3d
000003f0: 49b2 f43c b9a6 d5bd 34e1 30bb 6a1f 6f3c

conv2.bias f4 [8]
-0.039490327 -0.10976201 -0.035448592 0.011985466 0.018745987 0.0104354285 0.0038237534 -0.120673895
00000000: 9cc0 21bd e8ca e0bd 8b32 11bd b05e 443c
00000010: 2f91 993c 5cf9 2a3c f097 7a3b e023 f7bd

bn2.weight f4 [8]
0.7537789 1.1287302 0.74335307 0.6623807 0.68534064 0.7367841 0.87018025 1.392893
00000000: a7f7 403f 3b7a 903f 634c 3e3f c891 293f
00000010: 7c72 2f3f e29d 3c3f 22c4 5e3f 514a b23f

bn2.bias f4 [8]
-0.21909687 -0.19913146 -0.26911622 -0.24075606 -0.2619659 -0.18961255 -0.10355434 -0.10813049
00000000: ee5a 60be 1ee9 4bbe 9ac9 89be c288 76be
00000010: 6520 86be cb29 42be 4c14 d4bd 8573 ddbd

bn2.running_mean f4 [8]
-0.53647083 -0.14030975 0.03559538 -0.17035408 0.07163792 -0.42483622 -0.08450924 -0.14953919
00000000: 2756 09bf 5cad 0fbe 76cc 113d 4d71 2ebe
00000010: e7b6 923d 2284 d9be 2e13 adbd cd20 19be

bn2.running_var f4 [8]
0.8232912 0.50617886 0.7700408 0.9185858 0.71456444 1.0075988 0.592337 0.2508044
00000000: 36c3 523f f094 013f 6521 453f 7028 6b3f
00000010: b2ed 363f fff8 803f 66a3 173f 6f69 803e

conv3.weight f4 [16, 8, 4, 4, 4]
0.04261089 0.010348242 0.00029873685 0.0070197787 0.020712668 0.01693393 -0.0068361764 -0.038999084
-0.006991293 -0.025579207 0.0337941 0.00993231 0.040745646 0.013861334 0.039044622 -0.039215334
0.010009956 -0.025360696 -0.008369874 0.035327487 0.011661084 -0.011761895 0.10686885 -0.053604554
0.01937026 -0.022029916 -0.0015608548 -0.07752904 -0.029606074 -0.0016346556 0.044208497 0.02198189
0.029716082 0.03073657 0.022920337 -0.0149146635 -0.00054405787 -0.007846112 0.09316442 -0.004051517
-0.011329747 0.027006976 0.023992084 -0.08336024 0.012535769 -0.012834887 -0.02579637 0.0657945
-0.0010972879 0.023647 -0.021305727 0.021029955 -0.020637715 0.06849492 0.0151804695 -0.031382643
-0.00043555078 0.00062282884 0.027185481 -0.0157003 -0.0030511473 0.060133472 0.018402923 -0.02329867
0.0020873963 -0.029943582 -0.021649865 0.017698836 0.01004077 -0.0068858517 0.040013283 0.035115704
-0.02385098 -0.040435545 0.038373087 0.036586795 -0.022248747 0.021775639 0.02479265 -0.021393761
-0.021070158 -0.0039348034 0.033753213 0.029839098 0.02945735 -0.040490605 0.0144022 0.0298638
0.0110622775 -0.020275647 -0.033534925 0.011496035 -0.024216793 -0.0095831035 0.05972301 -0.00951888
0.014543523 0.017980963 -0.008771771 -0.019187216 -0.026023123 -0.010946207 -0.030717159 0.026620477
0.005833092 0.005806664 -0.09889481 0.08685341 0.021721521 0.048115194 -0.05169613 -0.21881412
-0.02355906 0.04350885 0.03089414 0.016761148 0.020076709 0.029256316 0.019489734 -0.013387525
0.03325582 -0.017517453 0.06896012 0.00043381547 -0.032773193 0.027077813 0.041927643 -0.2879973
-0.01798192 -0.025648374 -0.005819184 -0.0050002863 0.043947678 0.028454423 -0.043525375 0.034908116
-0.006908316 0.025753506 -0.034772344 -0.03904634 0.031674705 0.010750886 -0.029386658 0.019542107
-0.007838339 0.01433663 0.018321134 0.0055146306 -0.025770437 0.043361735 -0.006016643 -0.025021978
-0.00466976 0.031630896 0.017193608 0.014522108 0.020322978 -0.025855003 -0.014025631 -0.02635885
0.016169695 0.010635557 0.034421436 -0.01295729 -0.04122185 0.0033058003 0.0020650697 -0.021612408
-0.016781405 -0.004962052 0.022406027 -0.04504187 -0.036029 -0.03500595 -0.07337667 0.0023127673
-0.03766871 -0.014908114 0.017559147 0.043992985 0.028754275 0.050769825 0.0298774 -0.006648917
0.019685281 0.060804386 0.044098943 -0.115017585 0.033406496 0.04262689 -0.058080494 -0.13095367
0.015480316 -0.00891359 0.03748142 0.018212674 -0.010205927 -0.00800209 -0.0021926372 0.007446916
-0.02762826 -0.0035608714 -0.04119916 -0.03351587 0.029036032 0.044043463 0.024463069 -0.0333711
-0.01052667 0.025950179 -0.026516205 0.04149006 0.013216256 0.018511532 0.018753702 -0.004677046
0.029627874 0.0025839093 -0.01829797 -0.03319337 0.02267953 -0.03081177 -0.0503283 -0.015227853
-0.004309468 -0.03709628 0.03804267 0.029176429 0.02523191 -0.0025025825 -0.013486538 0.038244545
-0.009998992 -0.020254543 0.008175749 0.03189299 -0.0065478235 -0.022405846 -0.048164006 -0.0030548107
-0.01898973 -0.004903006 -0.039470796 -0.009354024 0.020330908 0.054154728 0.024335138 -0.007996277
0.02287811 0.03479178 -0.009154767 0.0005393257 0.037224438 0.03984682 -0.030801233 -0.081120834
00000000: c288 2e3d ac8b 293c c89f 9c39 2c06 e63b
00000010: 9dad a93c 06b9 8a3c 0102 e0bb 81bd 1fbd
00000020: 3717 e5bb 7c8b d1bc af6b 0a3d 21bb 223c
00000030: e8e4 263d a61a 633c 41ed 1f3d 42a0 20bd
00000040: cc00 243c 3cc1 cfbc cc21 09bc 8eb3 103d
00000050: 220e 3f3c f7b4 40bc 0ede da3d 7390 5bbd
00000060: 61ae 9e3c 1578 b4bc 9995 ccba 8cc7 9ebd
00000070: 7088 f2bc f141 d6ba f813 353d 5d13 b43c
00000080: 246f f33c 42cb fb3c 6ec3 bb3c a25c 74bc
00000090: 1b9f 0eba fb8c 00bc fdcc be3d 97c2 84bb
000000a0: 67a0 39bc bc3d dd3c 0c8b c43c c6b8 aabd
000000b0: d362 4d3c 6b49 52bc e952 d3bc 44bf 863d
000000c0: dfd2 8fba 5ab7 c13c 5989 aebc 0347 ac3c
000000d0: 6d10 a9bc 1147 8c3d 81b7 783c 168b 00bd
000000e0: a35a e4b9 5645 233a 16b4 de3c ea9d 80bc
000000f0: c2f5 47bb 844e 763d bac1 963c dadc bebc
00000100: b3cc 083b 3e4c f5bc 0f5b b1bc 26fd 903c
00000110: 0b82 243c b6a2 e1bb f8e4 233d 7cd5 0f3d
00000120: 2163 c3bc be9f 25bd 192d 1d3d 09dc 153d
00000130: 0143 b6bc d362 b23c f519 cb3c f841 afbc
00000140: 539b acbc 86ef 80bb cf40 0a3d 2071 f43c
00000150: 8a50 f13c 7ad9 25bd 34f7 6b3c eea4 f43c
00000160: 8e3e 353c 1d19 a6bc eb5b 09bd de59 3c3c
00000170: 4c62 c6bc 7302 1dbc 1da0 743d 14f5 1bbc
00000180: f547 6e3c d04c 933c 79b7 0fbc 822e 9dbc
00000190: 722e d5bc b857 33bc 8da2 fbbc 3013 da3c
000001a0: 8623 bf3b d445 be3b 5d89 cabd 33e0 b13d
000001b0: 55f1 b13c 7014 453d 52bf 53bd cf10 60be
000001c0: eefe c0bc 5636 323d b515 fd3c ad4e 893c
000001d0: e977 a43c f1aa ef3c efa8 9f3c 5a57 5bbc
000001e0: 4137 083d c380 8fbc f73a 8d3d ba71 e339
000001f0: 2f3d 06bd 4ad2 dd3c 52bc 2b3d 6274 93be
00000200: d24e 93bc 8a1c d2bc daae bebb 71d9 a3bb
00000210: 7b02 343d 4019 e93c aa47 32bd d0fb 0e3d
00000220: 285f e2bb 04f9 d23c 726d 0ebd 0eef 1fbd
00000230: 56bd 013d 7c24 303c 4abc f0bc c516 a03c
00000240: 606c 00bc 2fe4 6a3c 3416 963c 13b4 b43b
00000250: 861c d3bc 139c 313d 4227 c5bb e4fa ccbc
00000260: c904 99bb 668f 013d 9cd9 8c3c 23ee 6d3c
00000270: 607c a63c dfcd d3bc c3cb 65bc 84ee d7bc
00000280: 4f76 843c c240 2e3c 7efd 0c3d d04a 54bc
00000290: 3ed8 28bd 20a6 583b 1f56 073b 810c b1bc
000002a0: 2879 89bc b698 a2bb d88c b73c d37d 38bd
000002b0: 2593 13bd 6662 0fbd 8246 96bd cc91 173b
000002c0: 814a 1abd 2a41 74bc 33d8 8f3c fd31 343d
000002d0: 168e eb3c 05f4 4f3d 73c1 f43c 29df d9bb
000002e0: 0743 a13c 050e 793d 18a1 343d 578e ebbd
000002f0: 40d5 083d 8999 2e3d d0e5 6dbd b818 06be
00000300: 27a1 7d3c 4e0a 12bc 1e86 193d bf32 953c
00000310: c336 27bc 331b 03bc 59b2 0fbb 4205 f43b
00000320: a954 e2bc 825d 69bb 73c0 28bd f047 09bd
00000330: f9dc ed3c eb66 343d c666 c83c 22b0 08bd
00000340: 0e78 2cbc 7895 d43c 8338 d9bc 7bf1 293d
00000350: ff88 583c 7fa5 973c 5da1 993c e841 99bb
00000360: 28b6 f23c ce56 293b a0e5 95bc c5f5 07bd
00000370: 6cca b93c f768 fcbc 0c25 4ebd 3f7e 79bc
00000380: 7036 8dbb 45f2 17bd a1d2 1b3d 6803 ef3c
00000390: 27b3 ce3c 5e02 24bb a4f6 5cbc 50a6 1c3d
000003a0: d0d2 23bc dbec a5bc 94f3 053c 39a2 023d
000003b0: 208f d6bb 778c b7bc 9f47 45bd 3833 48bb
000003c0: 5a90 9bbc 65a9 a0bb 21ac 21bd 9f41 19bc
000003d0: 018d a63c 59d1 5d3d 7c5a c73c d102 03bc
000003e0: e06a bb3c d381 0e3d e0fd 15bc 8961 0d3a
000003f0: a778 183d 6b36 233d de52 fcbc ae22 a6bd

conv3.bias f4 [16]
0.039060388 0.0063581145 0.0371632 -0.07119896 0.049409244 -0.051239323 0.024894074 -0.0037732164
-0.036994703 0.002423823 0.022894882 0.0102510685 0.045275975 0.0052917027 0.017174287 0.01022467
00000000: c9fd 1f3d bb57 d03b 7138 183d c3d0 91bd
00000010: 5961 4a3d 53e0 51bd a8ee cb3c 1148 77bb
00000020: c287 17bd 01d9 1e3b 0c8e bb3c 19f4 273c
00000030: 4d73 393d 0566 ad3b 17b1 8c3c 6085 273c

bn3.weight f4 [16]
1.7309015 1.2695377 1.24309 1.2246221 1.283962 1.2885957 1.1878113 1.2525822
1.6249073 1.5427263 1.2731909 1.6315886 1.1911631 1.6705643 1.3122185 1.7611971
00000000: 2e8e dd3f 3680 a23f 931d 9f3f 6bc0 9c3f
00000010: de58 a43f b4f0 a43f 330a 983f 9d54 a03f
00000020: f6fc cf3f 0e78 c53f ebf7 a23f e5d7 d03f
00000030: 0878 983f 0dd5 d53f c7f6 a73f e86e e13f

bn3.bias f4 [16]
0.6167745 0.11686266 -0.008445162 0.07170755 0.088997744 0.09650562 0.049719453 0.06024879
0.5470803 0.5051771 0.053611133 0.48413852 0.056469068 0.44143373 0.10702322 0.5977866
00000000: efe4 1d3f b155 ef3d 945d 0abc 68db 923d
00000010: 7344 b63d bda4 c53d a0a6 4b3d 6fc7 763d
00000020: 740d 0c3f 4953 013f 5997 5b3d 01e1 f73e
00000030: 1c4c 673d 9a03 e23e fd2e db3d 8b08 193f

bn3.running_mean f4 [16]
0.01621703 -0.01591882 0.1580935 0.008279902 -0.0019765901 -0.12200277 -0.07687303 -0.035859127
-0.13642876 0.0695142 -0.033160653 -0.109487884 -0.02637375 -0.029777994 -0.015894124 0.020491593
00000000: 94d9 843c 2f68 82bc 43e3 213e 6da8 073c
00000010: ae89 01bb 97dc f9bd 9b6f 9dbd 05e1 12bd
00000020: fbb3 0bbe 765d 8e3d 77d3 07bd 2f3b e0bd
00000030: c30d d8bc fbf0 f3bc 6534 82bc fcdd a73c

bn3.running_var f4 [16]
0.020710299 0.015942017 0.016878538 0.020909576 0.028324408 0.019626778 0.024671694 0.023591878
0.037397195 0.020567704 0.026066104 0.10664313 0.025067152 0.092787795 0.024207385 0.12540238
00000000: a5a8 a93c d598 823c dc44 8a3c 8f4a ab3c
00000010: 9708 e83c 56c8 a03c 4b1c ca3c c143 c13c
00000020: cd2d 193d 9a7d a83c 9588 d53c b767 da3d
00000030: a159 cd3c 8707 be3d 914e c63c 7b69 003e

fc.weight f4 [2, 16]
-0.25469506 0.39670756 0.45558223 0.4507717 0.20830838 0.48836055 0.3389879 0.35235092
-0.47475293 -0.41240734 0.18159422 -0.49669674 0.1559368 -0.6982731 0.42272046 -0.6126529
0.67386115 -0.42821106 -0.2045006 -0.34992224 -0.2297154 -0.32540905 -0.15705194 -0.16316913
0.53985095 0.42670867 -0.39826548 0.6051084 -0.32359025 0.713702 -0.10171204 0.51945984
00000000: 6467 82be 411d cb3e 1342 e93e 8ccb e63e
00000010: cb4e 553e 650a fa3e d28f ad3e 5767 b43e
00000020: d112 f3be 0e27 d3be d6f3 393e 094f febe
00000030: e6ad 1f3e 07c2 32bf d16e d83e d2d6 1cbf
00000040: 2a82 2c3f 7b3e dbbe 9b68 51be 0229 b3be
00000050: 843a 6bbe 049c a6be 39d2 20be cf15 27be
00000060: ac33 0a3f 8f79 da3e 74e9 cbbe 62e8 1a3f
00000070: 9fad a5be 2db5 363f 674e d0bd 52fb 043f

fc.bias f4 [2]
-0.15986209 0.10965127
00000000: e3b2 23be d890 e03d
